…
e_uri":"https://localhost:8080/"},"executionInfo":{"status":"ok","timestamp":1712278531252,"user_tz":240,"elapsed":510,"user":{"displayName":"Zachary St.Thomas","userId":"04597993833758608109"}},"outputId":"fd4df1dd-8688-4aaa-bae5-492dc1ee2898"},"execution_count":12,"outputs":[{"output_type":"stream","name":"stdout","text":["DIE\n","Model: \"sequential\"\n","_________________________________________________________________\n"," Layer (type)                Output Shape              Param #   \n","=================================================================\n"," conv2d (Conv2D)             (None, 480, 640, 32)      98336     \n","                                                                 \n"," activation (Activation)     (None, 480, 640, 32)      0         \n","                                                                 \n"," conv2d_1 (Conv2D)           (None, 480, 640, 32)      1048608   \n","                                                                 \n"," activation_1 (Activation)   (None, 480, 640, 32)      0         \n","                                                                 \n"," max_pooling2d (MaxPooling2  (None, 60, 80, 32)        0         \n"," D)                                                              \n","                                                                 \n"," dropout (Dropout)           (None, 60, 80, 32)        0         \n","                                                                 \n"," conv2d_2 (Conv2D)           (None, 60, 80, 64)        131136    \n","                                                                 \n"," activation_2 (Activation)   (None, 60, 80, 64)        0         \n","                                                                 \n"," conv2d_3 (Conv2D)           (None, 60, 80, 64)        262208    \n","                                                                 \n"," activation_3 (Activation)   (None, 60, 80, 64)        0         \n","                                                                 \n"," max_pooling2d_1 (MaxPoolin  (None, 15, 20, 64)        0         \n"," g2D)                                                            \n","                                                                 \n"," dropout_1 (Dropout)         (None, 15, 20, 64)        0         \n","                                                                 \n"," flatten_1 (Flatten)         (None, 19200)             0         \n","                                                                 \n"," dense_1 (Dense)             (None, 128)               2457728   \n","                                                                 \n"," dense_2 (Dense)             (None, 5)                 645       \n","                                                                 \n","=================================================================\n","Total params: 3998661 (15.25 MB)\n","Trainable params: 3998661 (15.25 MB)\n","Non-trainable params: 0 (0.00 Byte)\n","_________________________________________________________________\n"]}]},{"cell_type":"code","source":["\n","#model.compile(optimi
…
